checkpoints/['improved', 2, 5, 16, 0.07, False, True].pt (torch, 37935 bytes, 16 tensors)

convi.weight f4 [16, 1, 5, 5]
000000 d1 bf f2 bb 51 85 19 3d e7 41 53 bd 4b 81 08 be
       -0.00740812 0.037480656 -0.05157652 -0.13330571
000010 e2 52 a9 3d ca 65 29 3e 0f 27 2a be 39 b0 66 3e
       0.08267762 0.16542736 -0.16616462 0.22528161
000020 5c 19 2c 3e c1 1c 69 3d ef 75 b7 bd 21 eb bb bb
       0.16806549 0.056912187 -0.08958041 -0.0057348167
000030 29 6f 6b 3e e3 8c 1e 3e f8 14 01 3e 52 47 96 3d
       0.22991623 0.15483432 0.12605655 0.07337822
000040 e5 84 0f 3e 50 ef 70 3e 1f 0a c5 3d 26 a9 47 3d
       0.14015539 0.2352879 0.09621071 0.048745297
000050 82 29 58 bd 0b 53 1e be c9 9f a2 3c b2 1c 94 3c
       -0.05277396 -0.15461366 0.019851582 0.01808009
000060 13 fc 35 be 99 15 8f 3d da 30 e0 bd 64 74 2b 3e
       -0.1777194 0.06986541 -0.10946818 0.16743618
000070 af e0 09 3d 72 4f 9f 3d 2d da 16 3e 86 8d b6 bc
       0.03366154 0.07778825 0.14731665 -0.02228428
000080 37 b3 1e 3e ea 27 3e be f4 7f 8f bd 58 87 37 3e
       0.15498053 -0.18569914 -0.07006827 0.17922723
000090 4f af ff ba 43 d1 94 bd 31 69 08 3e b9 ec 1e 3e
       -0.0019507202 -0.07266476 0.13321377 0.1551999
0000a0 e2 b1 e9 bd b1 f5 a9 3d 18 ac dd bc d6 60 21 3e
       -0.114108816 0.08298815 -0.0270596 0.15759596
0000b0 a2 45 01 3e bc 16 2e be cc 22 61 be df 57 59 be
       0.12624219 -0.1700086 -0.2198593 -0.21224926
0000c0 35 43 1e be 70 9f 73 3d 1c 73 36 bd 8a 60 3e be
       -0.15455325 0.059478223 -0.04454337 -0.18591514
0000d0 71 14 41 be 91 e0 33 3e 9d 5c db bc ef 3a 65 3d
       -0.18855454 0.17566134 -0.02677756 0.055964407
0000e0 c3 e3 da bd b8 85 a5 3d d7 b1 ad 3d 31 aa 11 be
       -0.10687973 0.080821455 0.08481186 -0.14225079
0000f0 d1 df 47 3c 93 b1 1c be bb a2 7e bb 38 6d f7 3d
       0.012199358 -0.15302114 -0.003885432 0.12081379
000100 d8 19 19 3e 40 e6 92 3d 61 e4 6c be e7 d2 c8 3d
       0.14951265 0.07172823 -0.23133995 0.098058514
000110 e0 26 33 be a9 c2 9a bb 9f 37 00 3e ae d7 5c 3d
       -0.17495298 -0.0047229123 0.12521218 0.053916626
000120 25 63 32 be 96 f9 49 bc 01 23 ba bc 73 7e 51 be
       -0.17420633 -0.012327572 -0.02272177 -0.20458393
000130 2d 70 34 3d 66 01 a8 bd 97 57 09 bb 82 f4 c7 bd
       0.04405229 -0.08203392 -0.0020956749 -0.09763433
000140 22 ba 50 be cd 61 ff 3d 14 d6 9a 3d e7 88 6d be
       -0.20383504 0.12469826 0.075603634 -0.23196755
000150 ad ea 51 3d 7f 29 66 3d 4c ef 54 3e b2 48 8f 3e
       0.051249195 0.056191918 0.2079441 0.2798515
000160 5e a6 c4 3d b8 d6 a7 3b 6c 86 62 be c9 ba be 3d
       0.096020445 0.005122032 -0.2212159 0.0931297
000170 df b9 29 3e e9 34 95 3d 6d 2e 7a be 31 6a 95 bd
       0.1657481 0.072854824 -0.24431773 -0.07295645
000180 6f d4 03 be f6 96 19 be 4e a5 ad 3d 1b be 0c be
       -0.12874006 -0.14998993 0.08478795 -0.13744394
000190 2e 53 5e bd 70 2f 33 3d 13 3c 5e 3e 1a 47 54 bd
       -0.054278545 0.04374641 0.21702604 -0.05182562
0001a0 d4 a3 a2 bc b4 8d 89 bd 4c 3a c4 bd af 7a 86 3e
       -0.01985351 -0.06716481 -0.09581432 0.26265475
0001b0 42 be 8f bd f9 da 55 be f9 a5 a1 3d 5b 46 32 3e
       -0.07018711 -0.20884313 0.07892985 0.17409651
0001c0 c6 f7 09 3e 0f 98 9b 3d 19 05 6d bd 29 4f c3 3d
       0.13473424 0.07597362 -0.05786619 0.09536583
0001d0 b3 ca f2 3d 29 0a 89 3e df 08 ab 3d 34 8e f0 3d
       0.11855068 0.26765564 0.083513014 0.11745873
0001e0 54 e4 f3 3d 78 95 35 be e5 cd cb 3d aa b3 e0 bc
       0.119087845 -0.17732799 0.09951381 -0.02742942
0001f0 00 ec ed 3d f1 e5 26 be 7b dc 3b 3e f2 c3 83 bd
       0.11617279 -0.16298653 0.18345825 -0.06433858
000200 4c 0f c9 bd 6e 9a 92 3d 98 f1 96 3d 5a ba 5e 3e
       -0.09817371 0.071583614 0.07370299 0.21750775
000210 26 83 b0 bd 3d 5e 48 be a9 b1 90 3c 6d 68 5d 3d
       -0.086187646 -0.19567199 0.01766284 0.054054666
000220 38 d6 fe bd 15 25 4a bd 03 3d 50 be 07 fd 06 3e
       -0.12443203 -0.04935177 -0.20335774 0.1318246
000230 8d 66 00 3d e6 23 b3 bc da 3f 8f be 17 a1 10 be
       0.0313478 -0.021867704 -0.27978402 -0.14123951
000240 d1 09 16 3d 86 d8 21 be bd 9c 06 bd b8 12 1d 3e
       0.036630455 -0.15805253 -0.03286432 0.15339172
000250 67 53 b1 bd e4 ae b4 3d 36 83 c7 3c 21 5d fd bc
       -0.08658486 0.0882242 0.024354558 -0.030928196
000260 3a 79 a6 bb 5e d0 de bc c9 ea 12 be 0e df d9 bd
       -0.0050803693 -0.027198967 -0.14347376 -0.106382474
000270 3c 34 60 bd 62 bc 8f bd 12 95 99 3d 59 be 2e 3d
       -0.054737315 -0.07018353 0.07499136 0.042662
000280 ca 87 39 3d a7 3c 36 3e 33 a6 e2 3d 55 38 bd 3d
       0.045295514 0.17796575 0.11066856 0.0923926
000290 26 80 7f 3d 34 e0 c5 3b f9 4a a7 bd ee 1c 17 3e
       0.06237807 0.00603869 -0.08168597 0.1475713
0002a0 91 78 57 be cc 20 2f bd 96 1b b0 3d 49 ff c1 bd
       -0.21042086 -0.042755887 0.085990116 -0.0947252
0002b0 c0 60 3f 3e 77 e3 08 3e 1f 19 76 3d ab 70 90 bd
       0.18689251 0.13368021 0.06008255 -0.0705274
0002c0 3d 16 c9 bc f5 82 39 bd da 29 85 3d 9f 13 49 bc
       -0.024546737 -0.045290906 0.06502123 -0.012272744
0002d0 ad 26 22 be 24 52 9e bd d7 b2 fb bd 8b 8d 1e be
       -0.15835066 -0.07730511 -0.1228997 -0.15483682
0002e0 30 51 8b bd c7 e4 30 be 54 4a 5e bd 9e c7 8b bd
       -0.06802595 -0.17274772 -0.054270104 -0.06825183
0002f0 f5 bd 2c bd 0b fb 90 bd 79 da 5d 3e 58 a5 6b 3d
       -0.042173345 -0.07079133 0.21665372 0.05753073
000300 34 02 4a be 89 6c 3b 3e c0 65 44 3e 1f 1b ff bd
       -0.19727403 0.18303122 0.1917944 -0.12456345
000310 56 ab 86 3d 43 d8 9c 3d 6d 10 b3 bd 07 2f a4 bd
       0.065756485 0.07658436 -0.08743367 -0.08016782
000320 9a 85 a3 bd e5 cd 97 bd 2f 86 ef bd c0 8a 0c 3d
       -0.07984467 -0.07412318 -0.11695515 0.03431201
000330 73 02 e0 3d 1a 35 fa 3c 30 08 15 be ab 96 85 bd
       0.10937967 0.030542899 -0.14553905 -0.06522878
000340 b8 e0 09 3e 22 08 9d 3d a1 11 21 be 83 da e2 bd
       0.1346463 0.07667567 -0.15729381 -0.11076834
000350 4a 23 50 be 4b 5b aa 3d 48 ab 65 be c0 3a 0a be
       -0.20325962 0.08318194 -0.2242862 -0.13498974
000360 29 44 28 be 54 2a 1b be ba b0 13 be 8c 08 9d bd
       -0.16432251 -0.15152866 -0.14422885 -0.07667646
000370 58 e6 08 3e 95 57 17 3e 41 04 0f be 19 11 e6 3d
       0.13369119 0.14779504 -0.13966466 0.1123373
000380 5f 6d 86 bd af 1b a7 3d 5f 0e 3b 3e 05 27 42 3e
       -0.0656383 0.08159577 0.18267201 0.18960197
000390 1e 29 16 3e 24 d5 00 3e 4c 89 aa 3d 99 ad 45 bd
       0.14664122 0.12581307 0.083269686 -0.04826126
0003a0 18 c3 12 be f1 77 55 3e 10 b4 43 3e b6 98 97 3c
       -0.14332235 0.20846535 0.19111657 0.018505435
0003b0 72 59 4f be 06 c0 fb bd c2 70 3c 3e 9b 3a 35 be
       -0.20248964 -0.12292485 0.18402389 -0.17698137
0003c0 88 7d 96 3c b4 97 15 3e 76 b7 bd 3d f7 82 2e be
       0.018370405 0.14608651 0.09263508 -0.17042147
0003d0 14 e9 a8 3d aa b5 10 be 2c ea 0e be 01 9a 1f 3e
       0.08247581 -0.141318 -0.13956517 0.15586092
0003e0 1f e1 00 3e 37 da d1 bd 44 01 a7 bd 36 40 42 bb
       0.12585877 -0.10246699 -0.08154538 -0.0029640323
0003f0 c2 86 d9 bd 88 58 8e bc cb e1 8a 3b 15 6f 9c 3d
       -0.10621406 -0.0173762 0.0042383424 0.07638375

convi.bias f4 [16]
000000 53 60 de bc fc 17 00 be b5 33 89 be 36 ab 81 3e
       -0.02714554 -0.1250915 -0.26797262 0.25325936
000010 43 70 4d be f4 1a 9c 3c 60 01 42 3e 84 7d 09 be
       -0.20062356 0.019055821 0.18945837 -0.13426787
000020 4d f4 40 3e 54 72 b5 be 14 fe 41 3e 5e 5b ba be
       0.18843193 -0.35438788 0.1894458 -0.36397833
000030 f2 f1 59 3e 61 65 23 be 20 eb b5 3c ac 50 b8 3c
       0.21283701 -0.15956642 0.022206843 0.022499405

convm.weight f4 [16, 16, 5, 5]
000000 ef b4 1c 3d 36 cc 1c bd 3a 37 84 3c d4 9c 49 3c
       0.03825849 -0.03828069 0.016139615 0.012305457
000010 c4 77 88 bc 83 54 c4 bc e0 c8 01 bc 00 74 70 bb
       -0.016658671 -0.02396608 -0.0079214275 -0.0036690235
000020 fd 83 c7 bc 30 61 7b bb 30 21 1f 3b 96 62 f4 3c
       -0.02435493 -0.0038357489 0.0024281256 0.029832166
000030 a6 94 ba 3c 06 1b 86 bc d3 73 b1 bc c2 07 fa 3c
       0.02277596 -0.016370308 -0.021661675 0.030521277
000040 20 42 9c bc 48 c3 0b bd b0 e6 ff bc 4e de dd 3c
       -0.0190745 -0.03412178 -0.03123793 0.027083542
000050 58 67 dc 3b 1a 62 0f bd 15 4c 0a 3d 10 ce c1 bb
       0.0067261867 -0.035005666 0.033763964 -0.005914457
000060 1d b3 2d bd f7 52 a4 bc 76 f9 94 3c b5 5f 3d 3d
       -0.042407144 -0.020059092 0.018185358 0.04623385
000070 f6 4e fc 3c 09 e2 33 3d ba 63 d3 3c 99 d9 3f 3d
       0.03079937 0.043916736 0.02580439 0.046838377
000080 53 0a 9b bc b2 42 39 bd 14 4f 59 bc 00 da 1b 3b
       -0.018925821 -0.04522962 -0.013263483 0.0023781061
000090 f2 97 ff 3c 27 d1 a3 bc d8 1b 99 3b 7c d8 56 3c
       0.031200383 -0.019997193 0.0046725087 0.013113137
0000a0 f2 76 42 bd 14 10 2b bc 7e 9e dd 3c d6 af 81 3c
       -0.047476716 -0.010440845 0.027053114 0.015830915
0000b0 6d 1c ee bc 38 c6 42 3c 75 f6 05 bd 52 e7 01 bd
       -0.029066289 0.011888079 -0.032705743 -0.031714745
0000c0 ca 71 e3 bc f4 3e 90 bc 1a 0c cf 3c 90 8e 9f 3b
       -0.02776422 -0.017608143 0.025274325 0.0048692897
0000d0 e4 b0 4e 3c ca c6 b8 3c 70 e9 8f 3b ca 3a fb bc
       0.012615416 0.022555728 0.0043918416 -0.030667681
0000e0 f2 b6 05 bd 52 86 d6 3c 40 5d 31 bc c0 e5 92 ba
       -0.032645173 0.026187096 -0.010825455 -0.0011207387
0000f0 92 d3 8b 3c 2d 8d c9 bc 93 59 ee bc 57 5e f5 bc
       0.017068658 -0.02460345 -0.029095447 -0.029952211
000100 aa e4 41 bd d0 3c 2a bd c0 1a 34 bd a2 d2 9c 3c
       -0.04733721 -0.0415619 -0.043970823 0.019143406
000110 e8 36 ef 3b 94 52 7a 3c b4 0b 8b bc 88 f4 02 bd
       0.0073002465 0.015278477 -0.016973354 -0.031971484
000120 5b 2a 16 bd 73 9b 35 3d 21 b2 3e 3d e2 42 fd 3c
       -0.036661487 0.0443377 0.046556596 0.030915681
000130 a0 b6 c7 bc 40 e8 46 bc 54 8d 30 bc bd 2c 39 3d
       -0.024379075 -0.012140334 -0.010775883 0.04520868
000140 21 17 1e 3d 00 28 c9 3a eb 72 20 bd bb 1c 35 3d
       0.038596276 0.0015347004 -0.039172094 0.044216853
000150 7d a0 a6 bc 30 e6 2a 3b 33 1b 07 3d 80 f1 a5 3b
       -0.020340199 0.0026077144 0.032984924 0.0050641894
000160 7b cb 4c bd 48 9f 03 3c 91 a8 3d 3d 7c 3b 70 3c
       -0.04999874 0.008033581 0.046303336 0.01466262
000170 9e e0 94 3c 28 b5 01 bc 53 c0 2e 3d 94 7e 0a bd
       0.018173512 -0.007916726 0.042663883 -0.03381212
000180 c0 7c a7 3b f4 d8 01 3c fe 4f 26 bd ca b7 c3 3c
       0.005111307 0.007925261 -0.04060363 0.023891348
000190 00 39 b4 b9 ac 4f 97 bc d3 f8 3b 3d b0 c1 c9 bc
       -0.00034374744 -0.018470608 0.045891594 -0.02462849
0001a0 f4 df 47 bc d8 17 9e bb e2 65 e9 3c c2 95 8b 3c
       -0.012199391 -0.0048246197 0.028490964 0.017039184
0001b0 22 cf 05 bd d1 2a 27 3d 60 6d 91 ba 7a 00 d0 bc
       -0.03266824 0.040812317 -0.0011095218 -0.025390852
0001c0 a5 9c 17 bd 38 c4 28 bc 96 ca 90 bc fa 82 2a bd
       -0.037014622 -0.010300688 -0.017674726 -0.041628815
0001d0 b4 15 5c 3c 80 1e 50 bc b0 f1 a2 bc d0 ed ca bc
       0.013432909 -0.012702584 -0.019890636 -0.024771601
0001e0 c5 e7 1d 3d 63 c3 0f bd 00 6e f8 bb 62 2d 19 bd
       0.03855111 -0.035098445 -0.0075814724 -0.037396796
0001f0 f8 0c 48 bc fe 3f b9 3c 78 77 6a bc 59 12 3f 3d
       -0.012210123 0.022613522 -0.01431071 0.046648357
000200 c0 b3 87 bb 36 ad c2 3c 90 a1 ba 3b 1a 43 85 3c
       -0.004141301 0.023764234 0.0056955293 0.016267348
000210 62 43 36 bd 11 e9 1d 3d 40 5b ed ba ff f0 0d 3d
       -0.044497855 0.038552348 -0.001810886 0.03465366
000220 06 d3 f9 3c cc 3e 2a bc 76 78 26 bd 00 4f 04 bd
       0.030496132 -0.0103909485 -0.040642224 -0.032301903
000230 67 50 49 bd 7a db 97 bc e2 9f 8a 3c 56 54 d2 3c
       -0.049148943 -0.018537272 0.016921941 0.02567498
000240 0d 3a 34 3d d4 f0 7d bc 80 4c 27 bc 51 4a 10 3d
       0.044000674 -0.015499312 -0.01021111 0.035227124
000250 c3 0b af bc 00 56 5e 3a e8 e5 78 bc 16 bd e6 3c
       -0.021367913 0.0008481443 -0.015191533 0.028166335
000260 d0 d7 ab bb 00 e0 24 3b d8 45 2d 3c 65 f0 27 bd
       -0.0052442327 0.0025157928 0.010575734 -0.041000742
000270 e0 4e f3 bc 41 24 01 3d 7d c9 23 3d 58 27 fb 3b
       -0.029700696 0.031528715 0.039987076 0.0076646022
000280 30 61 d1 bb 2a 51 eb 3c 2c 2d 6b 3c 3d 9c a5 bc
       -0.0063897595 0.028725225 0.0143540315 -0.020216102
000290 47 fd 0c 3d 06 c5 98 bc 7c 2a 6c 3c 92 06 a5 3c
       0.03442123 -0.018648636 0.014414426 0.020144735
0002a0 7e 37 0c bd 60 86 a8 3a c7 8d 01 3d e8 1c 00 bc
       -0.03423261 0.001285743 0.03162935 -0.007819392
0002b0 25 89 41 bd f7 09 10 3d 73 b5 0e bd a0 6c 30 bb
       -0.04724993 0.035165753 -0.034841012 -0.0026920214
0002c0 20 4b c0 bc 90 e0 2b bd 6d 52 d5 bc 7d 3e fe bc
       -0.023473322 -0.041962206 -0.02604028 -0.031035656
0002d0 d5 c9 18 3d e0 ab 01 3b f6 3a 16 bd e8 c2 84 bb
       0.037301857 0.0019786283 -0.036677323 -0.004051555
0002e0 2e b2 a5 3c 13 19 bb bc 24 c1 70 3c 6d ff a5 bc
       0.020226564 -0.022839105 0.014694486 -0.020263398
0002f0 40 75 76 3a 42 0c 93 3c 62 ee d2 3c 20 32 37 bc
       0.0009401627 0.01795018 0.025748435 -0.011181384
000300 4c 5f 70 bc a1 fb 2e 3d 21 e4 3f 3d f2 10 d3 3c
       -0.014671158 0.04272044 0.04684842 0.025764916
000310 c9 eb 00 3d 40 f3 18 bd 5b 76 46 3d eb c7 2f bd
       0.031474862 -0.037341356 0.048452716 -0.042915266
000320 82 cf 1e bd fc 1d 68 3c 9c 4d 8b bc 68 68 f3 3b
       -0.038772114 0.014167305 -0.01700478 0.0074282177
000330 e5 77 27 3d 4e 6e ab 3c 78 cf 02 bc 40 bc 41 3c
       0.040885825 0.02092662 -0.007984035 0.011824667
000340 93 d3 3c bd 70 22 81 3b 8c a0 68 bc 90 c2 e8 3b
       -0.04610021 0.003940873 -0.014198434 0.007103272
000350 34 68 17 3c 29 10 13 3d 58 94 fb bb 77 25 1a 3d
       0.009241153 0.035904083 -0.007677596 0.037633386
000360 68 b9 30 bc a3 d7 1e bd 30 da 5a 3b 16 6e e9 3c
       -0.010786392 -0.038779866 0.003339421 0.028494876
000370 6b c1 26 bd ea eb 18 bd a8 83 c1 bb c2 d9 8b 3c
       -0.0407118 -0.03733436 -0.005905587 0.017071608
000380 41 fa 25 3d 80 aa 84 bc 47 db f9 bc bf 36 45 bd
       0.040521864 -0.016194582 -0.030500067 -0.048147913
000390 8a 63 8f bc 42 28 4c bd 00 fc 9e bb fd af 31 3d
       -0.017503519 -0.04984308 -0.004851818 0.043380726
0003a0 a5 83 05 bd 83 40 24 bd 9d e7 de bc 50 78 90 bb
       -0.03259625 -0.040100586 -0.027210051 -0.0044088736
0003b0 c0 6d ad bc a0 20 e2 ba da 01 12 bd a0 c7 44 bd
       -0.021170497 -0.0017252155 -0.035646297 -0.04804194
0003c0 7e 46 b4 3c 82 05 e3 3c 7c 6a 71 3c 34 22 6c bc
       0.02200627 0.027712587 0.0147348605 -0.014412452
0003d0 9d e5 aa bc b9 b8 09 3d d4 a5 4e bc 83 82 0f 3d
       -0.020861441 0.03362343 -0.012612779 0.035036575
0003e0 00 24 da 3a 00 09 e7 b9 80 ea 1a 3c 0a 76 94 bc
       0.0016642809 -0.0004406646 0.009455323 -0.018122692
0003f0 7a 4b 3a bd 44 37 6d 3c 40 3c dd 3a 22 d4 d0 3c
       -0.045482136 0.014478508 0.0016878918 0.025491778

convm.bias f4 [16]
000000 72 80 c3 3c d0 d6 ea 3b 40 85 1a bd b3 92 fc bc
       0.023864958 0.007166721 -0.037724733 -0.03083167
000010 f2 f4 d9 3c fe a9 9a 3c e8 bb 0d bc fe 2f e9 3c
       0.026606057 0.018879887 -0.008650757 0.028465267
000020 ac ea 56 bc e0 25 c8 bc e8 55 2f 3c 8d fc 4b 3d
       -0.013117474 -0.024432123 0.010701634 0.049801398
000030 eb bb 01 3d c3 d0 1c 3d 00 fe 2c 3a e2 2a c3 3c
       0.031673353 0.03828503 0.0006599128 0.023824159

convl.weight f4 [3, 16, 5, 5]
000000 eb 42 0f bd 00 1f a3 bc a5 8f 81 3d 7a 61 87 3b
       -0.034975927 -0.019912243 0.06326226 0.004131493
000010 f4 c8 e4 3c 93 de 96 bc f7 3b d7 3c 74 0b 0d 3d
       0.027927853 -0.018416679 0.02627371 0.03443475
000020 e8 95 48 3d ef 94 82 3c 4a 51 4b 3d 54 33 70 3d
       0.048971087 0.015940158 0.04963807 0.0586427
000030 f2 1a 20 3e 1b 43 13 3c 39 12 a1 3c 57 b8 c0 3c
       0.15635279 0.008988167 0.01966201 0.0235254
000040 a6 87 6f 3d e7 3b 73 3d 7c c7 91 3b 9c 87 63 3d
       0.058478974 0.0593833 0.004448829 0.05554925
000050 c3 47 76 3b 27 61 94 bc 99 62 05 3c 3d 7b 2a bd
       0.0037579394 -0.018112732 0.008141183 -0.041621435
000060 8b 2e 18 3d 74 3a 2d bd 63 1c 12 3d 85 1d 9e bc
       0.03715376 -0.042292073 0.035671603 -0.019301185
000070 50 8f 13 bd 4d e5 22 bd 5f b8 9b 3c 1e ae 54 3d
       -0.036025345 -0.03976946 0.019008813 0.051923864
000080 25 dc cb bc ac bd b6 bc d8 a8 9f 3c ad 1a 1f bd
       -0.024885247 -0.02230724 0.01948969 -0.0388438
000090 0a 26 24 bd 33 57 1e 3d 20 9d 28 bd 07 f6 5c b9
       -0.04007534 0.03865738 -0.04116547 -0.00021072487
0000a0 78 d9 33 bd 0e 08 f8 bc 2c 5b a8 3c b4 b1 26 bd
       -0.043908566 -0.030277278 0.020551287 -0.040696815
0000b0 8e 53 34 bc 88 d0 55 bd dc 3d 89 3c 54 02 56 bd
       -0.011006249 -0.052200824 0.01675313 -0.052248314
0000c0 13 01 f3 bc 0f 89 de 3c 0a f1 7c bc a2 d0 9f bb
       -0.029663598 0.027164964 -0.015438328 -0.004877166
0000d0 66 33 bd bd 0c 7a 98 bd 0e ab 56 bd d3 cb 9e 3c
       -0.09238319 -0.074451536 -0.052409224 0.0193843
0000e0 55 e4 1d bc a4 bc a6 bd 52 6b 6c bd a6 74 c3 bc
       -0.009636958 -0.08141449 -0.057719536 -0.023859333
0000f0 d0 34 58 bd 7d b5 3e bc 9e 57 58 bd 1a 3e 3a bd
       -0.05278474 -0.01163995 -0.052817933 -0.04546938
000100 16 af 1a bc 1e d0 a0 3b 92 60 2b 3c 15 64 89 bd
       -0.009441158 0.004907622 0.010460036 -0.06708542
000110 a4 62 9f bd 33 6b ac 3c ef b4 85 bd aa 4e 74 bc
       -0.07782486 0.02104721 -0.06528651 -0.014911333
000120 ed 78 80 bc 68 80 ad bd 55 d9 8f bd 64 36 6e bc
       -0.015682662 -0.08471757 -0.07023875 -0.014539335
000130 8e 73 33 3d 96 73 de bc be 1f 04 bd ab f1 3a 3b
       0.043811373 -0.027154725 -0.032256834 0.0028525393
000140 7c 21 4c bd b6 fb e7 3d e6 96 c2 3d ce 82 90 3d
       -0.04983662 0.11327307 0.09501438 0.07056199
000150 5c 45 a8 bb fd 9c 37 3d cd 0d b9 3d ec a2 5c 3e
       -0.0051352214 0.04482745 0.090358354 0.21546525
000160 b2 2e ed 3d 57 58 a8 3d 5e 33 11 3c a2 7b 19 3b
       0.11581172 0.082199745 0.008862345 0.0023419638
000170 bd 94 1e 3d 96 35 b5 3d 3c 18 41 bc 52 ca 19 3d
       0.038716067 0.08848111 -0.011785563 0.037546463
000180 64 e5 10 bc ec b7 9a bb 23 aa b6 3c 7d c0 3f bd
       -0.0088437535 -0.004721632 0.022297924 -0.04681443
000190 11 a0 8c bb c4 b0 8c 3c 70 b5 fe 3c 65 f8 23 3d
       -0.0042915423 0.017174132 0.031092376 0.04003181
0001a0 ec 86 d2 3c e2 ab 8b 3c 7e 3e d2 3c 43 23 c3 3d
       0.025699101 0.017049734 0.025664564 0.0952821
0001b0 f6 4d 01 3d 17 e1 83 3d 82 e9 1c 3d a4 76 0d 3d
       0.03156849 0.06439417 0.038308628 0.034536973
0001c0 6d 20 d3 3d 5c 7e ca 3d 21 33 8f 3c 03 35 c9 bd
       0.10308919 0.098873824 0.017480435 -0.09824564
0001d0 8d df 82 3b 1f e3 b2 3d 97 e3 b3 3b 8d 5c 95 bb
       0.0039939345 0.08734726 0.0054897773 -0.004558152
0001e0 4c a1 16 bd 3f 6b 3a 3b 55 70 89 bc 7c 48 4c 3b
       -0.03677492 0.0028445271 -0.016777197 0.0031171134
0001f0 78 ce 46 bd c2 f7 b9 3c 43 8a 5d bb ef 32 00 bd
       -0.048536748 0.022701148 -0.0033804334 -0.031298574
000200 64 bd 60 bd 80 81 32 bd ef a8 3b 3d 6a 12 6d bd
       -0.054868117 -0.043580532 0.045815405 -0.05787889
000210 9d b1 c8 bc ce 85 bf bc af cf 29 bd 6f 8b c8 3c
       -0.024498755 -0.023379233 -0.041457828 0.02448055
000220 83 c2 a5 bd 15 2e cb bd 4d d4 84 bd c0 86 2e bd
       -0.08093741 -0.09920899 -0.06485806 -0.042608976
000230 87 1c 24 bd 7d a7 01 bb 0c 11 7f bd 2c 87 28 3d
       -0.04006627 -0.0019783669 -0.062272117 0.041144535
000240 b7 5e 01 bd c5 5a 1a 3d 07 51 2c bc b5 02 26 bd
       -0.031584468 0.03768422 -0.010517365 -0.040529925
000250 4f 6e 3b 3c bc 4d b3 bc 06 00 7e 3d 57 98 47 3a
       0.011439874 -0.021887653 0.06201174 0.0007613948
000260 0c ea b3 3d e1 f6 76 3b 4e 3c 4e ba ca 8d 3a bd
       0.08784875 0.0037683772 -0.00078672625 -0.045545377
000270 20 38 a0 bd d0 27 1c 3d 20 20 aa bd 2b d6 f8 3a
       -0.07823205 0.038123906 -0.083069086 0.0018984725
000280 25 ff d5 3d 27 a9 0e 3d d3 9c 0a 3e ac f4 9d 3d
       0.104490556 0.034829285 0.13536386 0.07712683
000290 ed 42 9a 3d f5 aa 10 3d 6e 64 27 3d db 36 25 3d
       0.07532296 0.035319287 0.04086726 0.040335517
0002a0 73 82 9b 3b 6b 22 78 ba 1e 4f 24 3d 5a 30 53 bc
       0.0047457754 -0.0009465578 0.040114515 -0.012889946
0002b0 09 e9 2e 3d 36 15 e2 3b b0 9a 9c 3c 7e aa 8a bc
       0.04270271 0.006899501 0.01911673 -0.016927
0002c0 db be cb bb 0a 14 02 bd 74 1c 36 3c 94 d0 b6 3a
       -0.00621782 -0.031757392 0.011115182 0.0013947659
0002d0 34 0b e4 3c 6c b6 47 3d 18 70 98 3c fc bc 54 3c
       0.027837373 0.048757955 0.018608138 0.0129845105
0002e0 d4 8a df ba 38 6a 0c bd b1 15 25 bd 41 eb 58 bb
       -0.0017054924 -0.034280986 -0.04030389 -0.0033099207
0002f0 23 9f 9d bb 74 a7 19 bd 5d 32 05 3c f4 30 db 3c
       -0.0048102303 -0.03751321 0.008129683 0.026756741
000300 9a d8 92 bd 67 b5 7d 3d c2 ab 8d 3c 23 24 26 bd
       -0.0717022 0.061940577 0.017293815 -0.040561806
000310 f5 55 80 bc 5b 8a 83 3c b6 d5 81 bc 69 13 ad bc
       -0.015665988 0.016057184 -0.015848976 -0.02112742
000320 54 5c d7 bb 6d 37 af bc 64 9f 45 bd b8 78 63 3c
       -0.0065722857 -0.021388734 -0.04824771 0.013883762
000330 f9 2f c7 3b dd 2b da bc 2b 66 80 bb b3 89 7a bd
       0.006078717 -0.026632244 -0.0039184294 -0.061166476
000340 9e 03 5d 3c 05 77 17 bd 56 12 b5 bd ef 51 22 bd
       0.013489632 -0.03697874 -0.08841388 -0.03962892
000350 00 5e f2 bd b1 91 43 bd 81 ce e5 bd c1 29 b6 bc
       -0.11834335 -0.047746364 -0.11221028 -0.022236707
000360 ba 85 3e 3d d4 53 3b bd 8b 03 1a bc bf a0 07 bc
       0.04651425 -0.04573424 -0.009400259 -0.008278071
000370 bf 00 e5 bb b5 ab 26 3d 2d e5 b4 bd aa 77 7b bb
       -0.0069886143 0.040691096 -0.08832774 -0.0038370886
000380 7f e9 65 3a 3b b3 4a 3c 3c d9 11 bd fe 37 8c 3c
       0.00087704504 0.012371833 -0.03560756 0.017116543
000390 9e aa 3c bd d7 c1 47 bd 2b 01 b6 3c 43 f3 ed bc
       -0.04606115 -0.048768844 0.022217354 -0.02904666
0003a0 35 48 c1 3c 07 71 e2 3c 65 52 ad bc 6b 24 c0 bc
       0.023594001 0.027641786 -0.021157453 -0.023454865
0003b0 51 b3 11 3c 4a a9 26 bd 0b a4 5d bd c8 91 23 bd
       0.00889285 -0.04068879 -0.05411152 -0.03993395
0003c0 fc ed 33 3d 17 ac b6 3d 58 32 80 3d 67 40 8e bc
       0.04392813 0.08919542 0.06259602 -0.017364694
0003d0 b4 0c 1a 3d 6b 9a d1 3d ad e0 1a 3e 9b 8f 11 3e
       0.03760977 0.10234531 0.1512477 0.14214937
0003e0 05 4a d5 3d ea f9 a6 3c e5 21 22 bd 69 ae 13 3d
       0.10414509 0.02038284 -0.039583106 0.036055002
0003f0 01 5a 81 3d 73 86 bc bd 11 13 e3 bc a0 35 f4 bc
       0.06315995 -0.09205332 -0.027719053 -0.029810727

convl.bias f4 [3]
000000 09 ad d3 3d 46 6b 03 be 0b 48 a7 be
       0.10335738 -0.1283389 -0.32672152

conv_single.weight f4 [3, 1, 5, 5]
000000 9a a1 3d be e8 1e 29 bd d0 53 0b bc 1a bb b4 bd
       -0.18518677 -0.04128924 -0.008503869 -0.08824749
000010 76 66 a7 3d 1b fa 2f 3e bf a9 4a be 19 e8 1f 3e
       0.0817384 0.17185251 -0.19791315 0.15615882
000020 0d 51 09 3e 18 46 49 3d 51 49 2a 3e 8c 91 39 3d
       0.13409825 0.049139112 0.1662953 0.04530482
000030 a2 11 c3 3d 97 af dd bd 00 9c a9 bc b8 38 1b 3d
       0.095248476 -0.10824507 -0.02070427 0.037895888
000040 6a 84 96 bd 31 7e 25 3e 80 c3 77 bb c0 1a 21 3d
       -0.07349475 0.1616142 -0.0037805736 0.03933215
000050 ca 8c b8 bd 3c 71 05 be 80 0b 75 bb c4 13 88 bd
       -0.090112284 -0.13031477 -0.0037390888 -0.06644395
000060 55 ad 16 3e b0 f3 a1 bd e3 81 c6 bd 6a 2f be 3d
       0.14714558 -0.07907808 -0.09692743 0.09286387
000070 8a a7 e7 3d d1 f9 21 3e 05 79 3f 3e b0 71 b5 bd
       0.113112524 0.15817954 0.18698509 -0.08859575
000080 53 2c 39 be e5 d9 1c be 82 ed ac 3d ba 35 f6 3d
       -0.18083315 -0.15317495 0.084437385 0.12021966
000090 52 83 d6 3d 41 e1 41 3e ce 19 ff 3d d0 3a b5 bc
       0.10474266 0.18933584 0.12456094 -0.02212277
0000a0 d8 7d 0f 3d 9e 7f 87 3d a7 81 02 3e 6c 8d 51 3d
       0.035032123 0.06616138 0.12744771 0.05116026
0000b0 90 8e ba bd 4a 75 c3 bd 4c 95 20 bd 03 3f 3f be
       -0.09109223 -0.095438555 -0.03920488 -0.18676381
0000c0 d8 4a fa 3c 9a 80 cb 3d d6 c1 e6 3d e8 87 04 3d
       0.030553266 0.09936638 0.1126744 0.032356173
0000d0 32 79 eb 3d 0c 35 26 bd 53 9c 27 3e 42 81 af 3d
       0.114977255 -0.040577933 0.16368227 0.08569576
0000e0 81 db 35 3e 13 88 1b 3e f0 7a d0 bc ea de 36 be
       0.17759515 0.15188627 -0.025449246 -0.17858472
0000f0 fd f0 a4 bd 70 d1 ed bd 6a d8 cc bd 80 7e 65 bc
       -0.08053777 -0.11612213 -0.10002215 -0.014007211
000100 43 7d c1 bd a6 17 9a 3d d5 16 46 3e 00 4a 80 3b
       -0.0944772 0.07524042 0.19344647 0.0039150715
000110 38 a6 1c be d3 c2 23 3e 60 41 99 bb a0 ea 7a bc
       -0.15297782 0.15992288 -0.0046769828 -0.015314728
000120 38 a1 47 be 4a 0e f0 3d b7 48 05 3e
       -0.19495094 0.117214754 0.1301602

conv_single.bias f4 [3]
000000 1a 5a fa bd 82 2a 88 3d b5 21 4b 3e
       -0.12224217 0.06648733 0.19837077

batch.weight f4 [16]
000000 00 00 80 3f 00 00 80 3f 00 00 80 3f 00 00 80 3f
       1.0 1.0 1.0 1.0
000010 00 00 80 3f 00 00 80 3f 00 00 80 3f 00 00 80 3f
       1.0 1.0 1.0 1.0
000020 00 00 80 3f 00 00 80 3f 00 00 80 3f 00 00 80 3f
       1.0 1.0 1.0 1.0
000030 00 00 80 3f 00 00 80 3f 00 00 80 3f 00 00 80 3f
       1.0 1.0 1.0 1.0

batch.bias f4 [16]
000000 00 00 00 00 00 00 00 00 00 00 00 00 00 00 00 00
       0.0 0.0 0.0 0.0
000010 00 00 00 00 00 00 00 00 00 00 00 00 00 00 00 00
       0.0 0.0 0.0 0.0
000020 00 00 00 00 00 00 00 00 00 00 00 00 00 00 00 00
       0.0 0.0 0.0 0.0
000030 00 00 00 00 00 00 00 00 00 00 00 00 00 00 00 00
       0.0 0.0 0.0 0.0

batch.running_mean f4 [16]
000000 00 00 00 00 00 00 00 00 00 00 00 00 00 00 00 00
       0.0 0.0 0.0 0.0
000010 00 00 00 00 00 00 00 00 00 00 00 00 00 00 00 00
       0.0 0.0 0.0 0.0
000020 00 00 00 00 00 00 00 00 00 00 00 00 00 00 00 00
       0.0 0.0 0.0 0.0
000030 00 00 00 00 00 00 00 00 00 00 00 00 00 00 00 00
       0.0 0.0 0.0 0.0

batch.running_var f4 [16]
000000 00 00 80 3f 00 00 80 3f 00 00 80 3f 00 00 80 3f
       1.0 1.0 1.0 1.0
000010 00 00 80 3f 00 00 80 3f 00 00 80 3f 00 00 80 3f
       1.0 1.0 1.0 1.0
000020 00 00 80 3f 00 00 80 3f 00 00 80 3f 00 00 80 3f
       1.0 1.0 1.0 1.0
000030 00 00 80 3f 00 00 80 3f 00 00 80 3f 00 00 80 3f
       1.0 1.0 1.0 1.0

batchl.weight f4 [3]
000000 00 00 80 3f 00 00 80 3f 00 00 80 3f
       1.0 1.0 1.0

batchl.bias f4 [3]
000000 00 00 00 00 00 00 00 00 00 00 00 00
       0.0 0.0 0.0

batchl.running_mean f4 [3]
000000 00 00 00 00 00 00 00 00 00 00 00 00
       0.0 0.0 0.0

batchl.running_var f4 [3]
000000 00 00 80 3f 00 00 80 3f 00 00 80 3f
       1.0 1.0 1.0
